2026-01-18 07:20:05,180 | INFO | __main__ | DeepConvLSTMLM(
  (net): DeepConvLSTM_PT(
    (conv2to5): ModuleList(
      (0): Sequential(
        (0): Conv2d(3, 64, kernel_size=(5, 1), stride=(1, 1), padding=(2, 0))
        (1): BatchNorm2d(64, eps=1e-05, momentum=0.1, affine=True, track_running_stats=True)
        (2): ReLU(inplace=True)
      )
      (1-3): 3 x Sequential(
        (0): Conv2d(64, 64, kernel_size=(5, 1), stride=(1, 1), padding=(2, 0))
        (1): BatchNorm2d(64, eps=1e-05, momentum=0.1, affine=True, track_running_stats=True)
        (2): ReLU(inplace=True)
      )
    )
    (lstm6): LSTM(64, 128, batch_first=True)
    (dropout6): Dropout(p=0.5, inplace=False)
    (pos_enc): SinusoidalPositionalEncoding()
    (sa_block): SelfAttentionBlock(
      (mha): MultiHeadTemporalAttention_(
        (wq): Linear(in_features=128, out_features=128, bias=True)
        (wk): Linear(in_features=128, out_features=128, bias=True)
        (wv): Linear(in_features=128, out_features=128, bias=True)
        (wo): Linear(in_features=128, out_features=128, bias=True)
        (norm): LayerNorm((128,), eps=1e-05, elementwise_affine=True)
        (dropout_attn): Dropout(p=0.1, inplace=False)
        (dropout_out): Dropout(p=0.1, inplace=False)
      )
      (ffn): TransformerFFN(
        (ff): Sequential(
          (0): Linear(in_features=128, out_features=512, bias=True)
          (1): ReLU(inplace=True)
          (2): Linear(in_features=512, out_features=128, bias=True)
          (3): Dropout(p=0.1, inplace=False)
        )
        (norm): LayerNorm((128,), eps=1e-05, elementwise_affine=True)
      )
    )
    (lstm7): LSTM(128, 128, batch_first=True)
    (dropout7): Dropout(p=0.5, inplace=False)
    (out8): Conv2d(128, 11, kernel_size=(1, 1), stride=(1, 1))
    (reg_lstm): LSTM(64, 64, batch_first=True)
    (dist_reg_head): Sequential(
      (0): Linear(in_features=64, out_features=32, bias=True)
      (1): ReLU()
      (2): Linear(in_features=32, out_features=1, bias=True)
    )
  )
  (criterion): CrossEntropyLoss()
  (assistant_model): DeepConvLSTM_PT(
    (conv2to5): ModuleList(
      (0): Sequential(
        (0): Conv2d(6, 64, kernel_size=(5, 1), stride=(1, 1), padding=(2, 0))
        (1): BatchNorm2d(64, eps=1e-05, momentum=0.1, affine=True, track_running_stats=True)
        (2): ReLU(inplace=True)
      )
      (1-3): 3 x Sequential(
        (0): Conv2d(64, 64, kernel_size=(5, 1), stride=(1, 1), padding=(2, 0))
        (1): BatchNorm2d(64, eps=1e-05, momentum=0.1, affine=True, track_running_stats=True)
        (2): ReLU(inplace=True)
      )
    )
    (lstm6): LSTM(64, 128, batch_first=True)
    (dropout6): Dropout(p=0.5, inplace=False)
    (pos_enc): SinusoidalPositionalEncoding()
    (sa_block): SelfAttentionBlock(
      (mha): MultiHeadTemporalAttention_(
        (wq): Linear(in_features=128, out_features=128, bias=True)
        (wk): Linear(in_features=128, out_features=128, bias=True)
        (wv): Linear(in_features=128, out_features=128, bias=True)
        (wo): Linear(in_features=128, out_features=128, bias=True)
        (norm): LayerNorm((128,), eps=1e-05, elementwise_affine=True)
        (dropout_attn): Dropout(p=0.1, inplace=False)
        (dropout_out): Dropout(p=0.1, inplace=False)
      )
      (ffn): TransformerFFN(
        (ff): Sequential(
          (0): Linear(in_features=128, out_features=512, bias=True)
          (1): ReLU(inplace=True)
          (2): Linear(in_features=512, out_features=128, bias=True)
          (3): Dropout(p=0.1, inplace=False)
        )
        (norm): LayerNorm((128,), eps=1e-05, elementwise_affine=True)
      )
    )
    (lstm7): LSTM(128, 128, batch_first=True)
    (dropout7): Dropout(p=0.5, inplace=False)
    (out8): Conv2d(128, 11, kernel_size=(1, 1), stride=(1, 1))
    (reg_lstm): LSTM(64, 64, batch_first=True)
    (dist_reg_head): Sequential(
      (0): Linear(in_features=64, out_features=32, bias=True)
      (1): ReLU()
      (2): Linear(in_features=32, out_features=1, bias=True)
    )
  )
  (proj_imu): Sequential(
    (0): Linear(in_features=128, out_features=128, bias=True)
    (1): ReLU()
    (2): Linear(in_features=128, out_features=128, bias=True)
  )
  (proj_sk): Sequential(
    (0): Linear(in_features=128, out_features=128, bias=True)
    (1): ReLU()
    (2): Linear(in_features=128, out_features=128, bias=True)
  )
)
